…
Initializing EMA parameters to be source parameters...
Generator(
  (activation): ReLU(inplace=True)
  (shared): identity()
  (linear): SNLinear(in_features=256, out_features=16384, bias=True)
  (blocks): ModuleList(
    (0): ModuleList(
      (0): GBlock(
        (activation): ReLU(inplace=True)
        (conv1): SNConv2d(1024, 1024, kernel_size=(3, 3), stride=(1, 1), padding=(1, 1))
        (conv2): SNConv2d(1024, 1024, kernel_size=(3, 3), stride=(1, 1), padding=(1, 1))
        (conv_sc): SNConv2d(1024, 1024, kernel_size=(1, 1), stride=(1, 1))
        (bn1): ccbn(
          out: 1024, in: 1, cross_replica=False
          (gain): Embedding(1, 1024)
          (bias): Embedding(1, 1024)
        )
        (bn2): ccbn(
          out: 1024, in: 1, cross_replica=False
          (gain): Embedding(1, 1024)
          (bias): Embedding(1, 1024)
        )
      )
    )
    (1): ModuleList(
      (0): GBlock(
        (activation): ReLU(inplace=True)
        (conv1): SNConv2d(1024, 512, kernel_size=(3, 3), stride=(1, 1), padding=(1, 1))
        (conv2): SNConv2d(512, 512, kernel_size=(3, 3), stride=(1, 1), padding=(1, 1))
        (conv_sc): SNConv2d(1024, 512, kernel_size=(1, 1), stride=(1, 1))
        (bn1): ccbn(
          out: 1024, in: 1, cross_replica=False
          (gain): Embedding(1, 1024)
          (bias): Embedding(1, 1024)
        )
        (bn2): ccbn(
          out: 512, in: 1, cross_replica=False
          (gain): Embedding(1, 512)
          (bias): Embedding(1, 512)
        )
      )
    )
    (2): ModuleList(
      (0): GBlock(
        (activation): ReLU(inplace=True)
        (conv1): SNConv2d(512, 512, kernel_size=(3, 3), stride=(1, 1), padding=(1, 1))
        (conv2): SNConv2d(512, 512, kernel_size=(3, 3), stride=(1, 1), padding=(1, 1))
        (conv_sc): SNConv2d(512, 512, kernel_size=(1, 1), stride=(1, 1))
        (bn1): ccbn(
          out: 512, in: 1, cross_replica=False
          (gain): Embedding(1, 512)
          (bias): Embedding(1, 512)
        )
        (bn2): ccbn(
          out: 512, in: 1, cross_replica=False
          (gain): Embedding(1, 512)
          (bias): Embedding(1, 512)
        )
      )
    )
    (3): ModuleList(
      (0): GBlock(
        (activation): ReLU(inplace=True)
        (conv1): SNConv2d(512, 256, kernel_size=(3, 3), stride=(1, 1), padding=(1, 1))
        (conv2): SNConv2d(256, 256, kernel_size=(3, 3), stride=(1, 1), padding=(1, 1))
        (conv_sc): SNConv2d(512, 256, kernel_size=(1, 1), stride=(1, 1))
        (bn1): ccbn(
          out: 512, in: 1, cross_replica=False
          (gain): Embedding(1, 512)
          (bias): Embedding(1, 512)
        )
        (bn2): ccbn(
          out: 256, in: 1, cross_replica=False
          (gain): Embedding(1, 256)
          (bias): Embedding(1, 256)
        )
      )
    )
    (4): ModuleList(
      (0): GBlock(
        (activation): ReLU(inplace=True)
        (conv1): SNConv2d(256, 128, kernel_size=(3, 3), stride=(1, 1), padding=(1, 1))
        (conv2): SNConv2d(128, 128, kernel_size=(3, 3), stride=(1, 1), padding=(1, 1))
        (conv_sc): SNConv2d(256, 128, kernel_size=(1, 1), stride=(1, 1))
        (bn1): ccbn(
          out: 256, in: 1, cross_replica=False
          (gain): Embedding(1, 256)
          (bias): Embedding(1, 256)
        )
        (bn2): ccbn(
          out: 128, in: 1, cross_replica=False
          (gain): Embedding(1, 128)
          (bias): Embedding(1, 128)
        )
      )
    )
    (5): ModuleList(
      (0): GBlock(
        (activation): ReLU(inplace=True)
        (conv1): SNConv2d(128, 64, kernel_size=(3, 3), stride=(1, 1), padding=(1, 1))
        (conv2): SNConv2d(64, 64, kernel_size=(3, 3), stride=(1, 1), padding=(1, 1))
        (conv_sc): SNConv2d(128, 64, kernel_size=(1, 1), stride=(1, 1))
        (bn1): ccbn(
          out: 128, in: 1, cross_replica=False
          (gain): Embedding(1, 128)
          (bias): Embedding(1, 128)
        )
        (bn2): ccbn(
          out: 64, in: 1, cross_replica=False
          (gain): Embedding(1, 64)
          (bias): Embedding(1, 64)
        )
      )
    )
  )
  (output_layer): Sequential(
    (0): bn()
    (1): ReLU(inplace=True)
    (2): SNConv2d(64, 3, kernel_size=(3, 3), stride=(1, 1), padding=(1, 1))
  )
)
Discriminator(
  (activation): ReLU(inplace=True)
  (blocks): ModuleList(
    (0): ModuleList(
      (0): DBlock(
        (activation): ReLU(inplace=True)
        (downsample): AvgPool2d(kernel_size=2, stride=2, padding=0)
…
